…
user_tz":-60,"elapsed":674,"user":{"displayName":"jean cuiller","photoUrl":"https://lh3.googleusercontent.com/a-/AOh14GjVV6YEk6NIgV_xxbbAG4VUzGr-Vb7GLo2ynZM4kQ=s64","userId":"08361246649758684646"}},"outputId":"60a39547-1a4e-4784-960c-2c52c04b6c80"},"execution_count":189,"outputs":[{"output_type":"stream","name":"stdout","text":["Model: \"sequential_13\"\n","_________________________________________________________________\n","Layer (type)                 Output Shape              Param #   \n","=================================================================\n","conv2d_65 (Conv2D)           (None, 160, 345, 8)       32        \n","_________________________________________________________________\n","max_pooling2d_65 (MaxPooling (None, 80, 172, 8)        0         \n","_________________________________________________________________\n","conv2d_66 (Conv2D)           (None, 80, 172, 16)       1168      \n","_________________________________________________________________\n","max_pooling2d_66 (MaxPooling (None, 40, 86, 16)        0         \n","_________________________________________________________________\n","conv2d_67 (Conv2D)           (None, 40, 86, 32)        4640      \n","_________________________________________________________________\n","max_pooling2d_67 (MaxPooling (None, 20, 43, 32)        0         \n","_________________________________________________________________\n","conv2d_68 (Conv2D)           (None, 20, 43, 64)        18496     \n","_________________________________________________________________\n","max_pooling2d_68 (MaxPooling (None, 10, 21, 64)        0         \n","_________________________________________________________________\n","conv2d_69 (Conv2D)           (None, 10, 21, 128)       73856     \n","_________________________________________________________________\n","max_pooling2d_69 (MaxPooling (None, 5, 10, 128)        0         \n","_________________________________________________________________\n","flatten_13 (Flatten)         (None, 6400)              0         \n","_________________________________________________________________\n","dense_26 (Dense)             (None, 512)               3277312   \n","_________________________________________________________________\n","dense_27 (Dense)             (None, 1)                 513       \n","=================================================================\n","Total params: 3,376,017\n","Trainable params: 3,376,017\n","Non-trainable params: 0\n","_________________________________________________________________\n","weights loaded\n"]}]},{"cell_type":"code","source":["day_image_generator = ImageDataGenerator(rescale=1./255) # Generator for our test data\n","day_generator = 
…
